…
[2025-08-26 08:12:12,870] [INFO] [logging.py:83:print_configuration]   _is_full_backward_hook ....... None
[2025-08-26 08:12:12,870] [INFO] [logging.py:83:print_configuration]   _is_gradient_accumulation_boundary  None
[2025-08-26 08:12:12,870] [INFO] [logging.py:83:print_configuration]   _load_state_dict_post_hooks .. OrderedDict()
[2025-08-26 08:12:12,870] [INFO] [logging.py:83:print_configuration]   _load_state_dict_pre_hooks ... OrderedDict()
[2025-08-26 08:12:12,871] [INFO] [logging.py:83:print_configuration]   _modules ..................... {'module': OPTForCausalLM(
  (model): OPTModel(
    (decoder): OPTDecoder(
      (embed_tokens): Embedding(50265, 768, padding_idx=1)
      (embed_positions): OPTLearnedPositionalEmbedding(2050, 768)
      (final_layer_norm): LayerNorm((768,), eps=1e-05, elementwise_affine=True)
      (layers): ModuleList(
        (0-11): 12 x OPTDecoderLayer(
          (self_attn): OPTAttention(
            (k_proj): Linear(in_features=768, out_features=768, bias=True)
            (v_proj): Linear(in_features=768, out_features=768, bias=True)
            (q_proj): Linear(in_features=768, out_features=768, bias=True)
            (out_proj): Linear(in_features=768, out_features=768, bias=True)
          )
          (activation_fn): ReLU()
          (self_attn_layer_norm): LayerNorm((768,), eps=1e-05, elementwise_affine=True)
          (fc1): Linear(in_features=768, out_features=3072, bias=True)
          (fc2): Linear(in_features=3072, out_features=768, bias=True)
          (final_layer_norm): LayerNorm((768,), eps=1e-05, elementwise_affine=True)
        )
      )
    )
  )
  (lm_head): Linear(in_features=768, out_features=50265, bias=False)
)}
[2025-08-26 08:12:12,871] [INFO] [logging.py:83:print_configuration]   _non_persistent_buffers_set .. set()
[2025-08-26 08:12:12,871] [INFO] [logging.py:83:print_configuration]   _parameters .................. {}
[2025-08-26 08:12:12,871] [INFO] [logging.py:83:print_configuration]   _state_dict_hooks ............ OrderedDict()
[2025-08-26 08:12:12,871] [INFO] [logging.py:83:print_configuration]   _state_dict_pre_hooks ........ OrderedDict()
…
