…
10.0.1.64: [2025-08-28 08:19:38,910] [INFO] [logging.py:83:print_configuration]   _is_gradient_accumulation_boundary  None
10.0.1.64: [2025-08-28 08:19:38,910] [INFO] [logging.py:83:print_configuration]   _load_state_dict_post_hooks .. OrderedDict()
10.0.1.64: [2025-08-28 08:19:38,910] [INFO] [logging.py:83:print_configuration]   _load_state_dict_pre_hooks ... OrderedDict()
10.0.1.64: [2025-08-28 08:19:38,911] [INFO] [logging.py:83:print_configuration]   _modules ..................... {'module': OPTForCausalLM(
10.0.1.64:   (model): OPTModel(
10.0.1.64:     (decoder): OPTDecoder(
10.0.1.64:       (embed_tokens): Embedding(50265, 768, padding_idx=1)
10.0.1.64:       (embed_positions): OPTLearnedPositionalEmbedding(2050, 768)
10.0.1.64:       (final_layer_norm): LayerNorm((768,), eps=1e-05, elementwise_affine=True)
10.0.1.64:       (layers): ModuleList(
10.0.1.64:         (0-11): 12 x OPTDecoderLayer(
10.0.1.64:           (self_attn): OPTAttention(
10.0.1.64:             (k_proj): Linear(in_features=768, out_features=768, bias=True)
10.0.1.64:             (v_proj): Linear(in_features=768, out_features=768, bias=True)
10.0.1.64:             (q_proj): Linear(in_features=768, out_features=768, bias=True)
10.0.1.64:             (out_proj): Linear(in_features=768, out_features=768, bias=True)
10.0.1.64:           )
10.0.1.64:           (activation_fn): ReLU()
10.0.1.64:           (self_attn_layer_norm): LayerNorm((768,), eps=1e-05, elementwise_affine=True)
10.0.1.64:           (fc1): Linear(in_features=768, out_features=3072, bias=True)
10.0.1.64:           (fc2): Linear(in_features=3072, out_features=768, bias=True)
10.0.1.64:           (final_layer_norm): LayerNorm((768,), eps=1e-05, elementwise_affine=True)
10.0.1.64:         )
10.0.1.64:       )
10.0.1.64:     )
10.0.1.64:   )
10.0.1.64:   (lm_head): Linear(in_features=768, out_features=50265, bias=False)
10.0.1.64: )}
10.0.1.64: [2025-08-28 08:19:38,911] [INFO] [logging.py:83:print_configuration]   _non_persistent_buffers_set .. set()
10.0.1.64: [2025-08-28 08:19:38,911] [INFO] [logging.py:83:print_configuration]   _parameters .................. {}
10.0.1.64: [2025-08-28 08:19:38,911] [INFO] [logging.py:83:print_configuration]   _state_dict_hooks ............ OrderedDict()
…
